LeNet/lightning_logs/version_0/checkpoints/epoch=9-step=9380.ckpt (torch, 754587 bytes, 30 tensors)

lenet.net.0.conv1.weight f4 [6, 1, 5, 5]
00000000: 5c4c 103e a8a3 023b d535 3bbe ba64 063e
00000010: fbca 493e 7ac7 76be 953c 83bb 46ed a7be
00000020: d450 2fbe 8b4b c63e 0beb eabe 7092 c2be
00000030: f1e1 cdbd 1790 ba3d 4875 e83e f2d0 16be
00000040: bd94 a9bd b129 413e 515f d03e cd97 753e
00000050: 780e 91bc 6548 703e a34e 093e 4a31 953e
00000060: 0ca2 f73d cef0 71bc d160 153e 43e1 b1be
00000070: 051b edbe 2fc5 0cbe a034 3e3e bf31 cfbc
00000080: ca91 4ebe 092f eabd 2daf a13e d0a1 773e
00000090: 67e3 993e bf6d 903d b9c7 9e3e 02dd cebc
000000a0: f595 1cba 6fba d73b 4bf2 4b3e 8318 a13e
000000b0: 2839 81be 6e09 8d3d f8ed 273e 27ab 943e
000000c0: 1c14 fb3d fc60 1cbe ce37 c9be bb80 a9be
000000d0: d423 053e e718 463e a4dd 28be 23c3 bebe
000000e0: 2be0 1d3e 7a60 8b3e da22 a53d 1afa aa3d
000000f0: 8327 163e 5d5e 463e fffe cbbc b9a4 413e
00000100: 5673 95bc 64d8 9b3e d48e fe3d c272 2ebe
00000110: 42b5 9d3e 441a f83d dab9 7cbe eb89 89be
00000120: b236 bbbd fcc9 913d e6c7 0dbd ced5 cfbd
00000130: e9a6 b73c 14b1 86be 3af9 4ebe 0da2 bfbe
00000140: db86 a7bb b48b 093e 5100 a43c 9596 d1be
00000150: 71ac d3be d6a1 903d ec6a 103e fab7 02bc
00000160: a717 35be 6b8b 253e 27f6 db3d a443 be3e
00000170: 5d38 ee3e 7cd5 e13e 0939 c83e 7182 3dbd
00000180: c601 343d 8d11 373e fc37 c43c a7a3 233e
00000190: 8346 993e f513 48bd 4a78 d2be c194 31be
000001a0: 4f15 61be 48f0 763e ccb3 f0bd 7ad4 bdbe
000001b0: 876d 82be 5b05 93bd 68aa e23e dacd f13e
000001c0: 01a4 193e 4e8c 05bc e5c3 9c3e eeab 583e
000001d0: 868c 063f d92e 963e afa5 94bd 63b1 85bc
000001e0: d859 debe f50a 4abe 84b0 2bbe 0373 07be
000001f0: 1886 c03d ae5b 0a3e 2abb 263e 6105 613e
00000200: c2c3 ca3d 712d bb3e ef92 8e3e 3a43 253e
00000210: c5c3 723e 91af dc3e bfb9 e83e 6d89 993e
00000220: dfa2 c93d 6ddb 363d 6f6f 8bbd ad8e 03be
00000230: 0142 143e 24e0 c4bd 7905 e6be 8aa8 00bf
00000240: f395 63be 4603 0cbe 4080 dbbe 5a3c eabe
00000250: f833 e7be 4bc6 62be
0.14091629 0.0019933973 -0.18282254 0.13124362 0.19706337 -0.24099532 -0.0040050247 -0.32798213
-0.17120677 0.3872951 -0.4588245 -0.38002348 -0.100528605 0.09109514 0.45401978 -0.14728144
-0.08280323 0.1886356 0.4069772 0.23983689 -0.017707095 0.23465116 0.13408904 0.29139167
0.12091455 -0.014766885 0.14587714 -0.34742174 -0.46309677 -0.13747095 0.18574762 -0.025292275
-0.20172802 -0.114347525 0.3157896 0.2418282 0.30056307 0.070521824 0.3101175 -0.02525187
-0.0005973273 0.006583504 0.19916646 0.31464013 -0.2523892 0.06886564 0.16399372 0.2903683
0.12259695 -0.15271372 -0.39300388 -0.33106026 0.13001949 0.19345437 -0.16490799 -0.37258253
0.15417545 0.27222043 0.08063288 0.08348484 0.1466351 0.19371934 -0.024901865 0.18910493
-0.018243473 0.3043853 0.12429586 -0.17035964 0.3080235 0.12114385 -0.24680272 -0.26863036
-0.09141292 0.071186036 -0.034614466 -0.10148202 0.022418456 -0.26306975 -0.2021226 -0.37428322
-0.0051125116 0.13432199 0.020019682 -0.40935197 -0.413425 0.07062118 0.14103287 -0.007978434
-0.17684804 0.16166465 0.10740309 0.3716098 0.46527377 0.44108188 0.39106014 -0.046266977
0.043947004 0.17877789 0.023952477 0.15980397 0.2993661 -0.048847158 -0.41107398 -0.17341901
-0.21980785 0.24115098 -0.117530435 -0.3707617 -0.25474188 -0.07178756 0.44270635 0.47227365
0.15003969 -0.008151127 0.30618206 0.21159336 0.5255817 0.29332617 -0.07258164 -0.016319936
-0.4342792 -0.19730742 -0.16766554 -0.13227467 0.09400576 0.13511536 0.16282335 0.21974708
0.09900619 0.36558107 0.27846476 0.16138926 0.23707493 0.43102697 0.45454213 0.2998766
0.09845518 0.044642854 -0.06808364 -0.12847395 0.14478303 -0.09613064 -0.4492605 -0.5025717
-0.2222517 -0.13673124 -0.42871284 -0.4574917 -0.45156837 -0.22145955

lenet.net.0.conv1.bias f4 [6]
00000000: a4fc 78be 16b1 85bd 9e3c 4abd 83be 56bb
00000010: e13e cbbc ad85 8a3d
-0.24315125 -0.06527917 -0.049374215 -0.0032767362 -0.024810256 0.06763778

lenet.net.0.conv2.weight f4 [16, 6, 5, 5]
00000000: dd74 be3d d619 2e3e 887a 36bd 05b9 68bd
00000010: c166 f3bd 4203 123e f844 8b3d 16e3 98bc
00000020: 4df5 8a3c b72e b0bd fccd 013e 8fe3 d2bd
00000030: 8aa6 6abe 8c75 34be 053b a8bd d1ef f53c
00000040: 4073 88bd 5b2a 0cbe a41b 0ebe b167 85be
00000050: 41e2 b83d 5f23 d7bd 9649 a6bc f255 babd
00000060: da06 63be 9b96 5b3d 0635 203e d6ed 3a3d
00000070: f52a 3e3e 9c24 da3d 408d 01be c846 8f3b
00000080: 7abd 303e 8d35 ac3d febf b23c 78a9 b1be
00000090: 8333 b3bd a2ee 303e 29c5 0f3d 73c7 913d
000000a0: cbd5 e5be 02ed a9be 9c7c 023e 458c e73d
000000b0: 4ba2 47bd 43d3 64be 0fa4 75be 00e7 66bd
000000c0: 7bf9 cfbd 7d31 0bbe f7b0 0d3e 1a0d f83d
000000d0: 90f6 583c e40f 63bd 3a3b d9bd 4e16 873c
000000e0: 65bf 3e3e 1d51 60bc 7bd2 cabb 4211 85bd
000000f0: 36dd 833d 8444 ce3d b811 263d 5afb 1c3d
00000100: 6ce2 26bd d365 ffbc 9110 6d3d 66c3 a0bd
00000110: 3884 24bd a0c2 cc3c 1674 23be 8b73 e6bd
00000120: ef35 23be 0828 62be 452e c0be 8b6e 18bd
00000130: 6c1b 5b3d 299c c33d 7a8d 1b3e bf34 013d
00000140: e265 8ebd 2c2e eb3c 5deb 3d3e 1b36 45bc
00000150: 3059 873b a322 f0be 9d0c 7dbd 78d0 803d
00000160: b41e 053e 18db 1a3e 3b4f 1bbf 548b 60be
00000170: ccd4 363d f762 cdbd 54fd 8ebe 8324 66be
00000180: 077e 0bbe bb3e 003d 8525 1c3c 4f3a 07be
00000190: 552c bb3d d271 8f3c 58d5 eb3d dfcb a33d
000001a0: 2ea1 f03c 50a8 603d a4f6 8fbb f944 223e
000001b0: 7856 e93d 64a8 a03d fa1e 22be 292e 3fbe
000001c0: ffc5 433e 1ea6 c93d 65f0 233e 684b a6be
000001d0: fd41 b7be 5d47 d73d 4d0f 403e 1c38 efbb
000001e0: ec8f 9bbe 56d8 aabe ecef c2bd 5c96 53be
000001f0: 9385 3ebe a980 8abe 0f66 e1be ef24 74bd
00000200: 7c50 d5bd a6b8 2b3d 023b 6b3d f895 9fbe
00000210: 8753 1dbe 8fae 26bd e2c3 c53d fde3 6b3d
00000220: 7473 acbc c46d 3d3c fe67 4c3b 8a78 b53c
00000230: 4a0e 78bd 0400 253c fa2a 133e 4382 c53d
00000240: b8e6 c33d ca0f 7bbe 15a9 b4bd e1f0 253e
00000250: dbd0 993c 1701 b0bd fbb9 08bc 77b5 0a3e
00000260: ab7e ad3d 2c4d 673d 1102 ea3d 7a4c 3dbe
00000270: edd1 3ebe ae2b c0bd 8548 153d caa8 f73d
00000280: 9ee9 11be 2093 a0be 9594 42be fa40 25be
00000290: cc06 38bd 8b4e ae3b d34f 8bbe a7e7 4abe
000002a0: 223f efbd aee0 81bb d371 fc3b 4168 1bb9
000002b0: 2ad0 bcbd d2e2 4dbd 69d3 67bc 0d87 cfbd
000002c0: f4c9 0b3d c55c a73b 93c7 313d 93b0 ebbc
000002d0: 2dcf 3abe 53f6 8fbe aba9 3dbe 7476 233e
000002e0: 64b6 623e 3336 d43d 893e 94be e536 e5be
000002f0: 7c1d 84be fc7f 9abd cd11 a13e ff72 513e
00000300: 607c 44bb 74e3 3dbe 43e2 5dbe ab1d 843d
00000310: b1ab 8f3e 1309 243e 1760 3d3e a5d1 433d
00000320: 8347 583d 6ae8 e43b 28f1 c23d 3341 a63c
00000330: d43d 1c3d 4fe5 7ebd e94d bb3b 5be6 113e
00000340: 64f6 f03d ad79 2c3e 850c c6bd 0fea 8bbe
00000350: e940 d1bd 5372 593c c43a 1e3e cda8 193e
00000360: 096a fdbd 49af 8abe cdbd d9bd d364 39be
00000370: 72e3 df3d 86b6 743c f628 cc3d 32b4 c53d
00000380: d321 e73c c651 81bc e03e c4bd 6dac 1c3d
00000390: cb5d debb 2531 b23c ee71 36be a0eb 8ebe
000003a0: 1ba6 2d3d e23c 063e 7c82 923e 9807 fd3d
000003b0: d142 61be 3c5e 11bf c003 54be b8ac c3bd
000003c0: e9f7 8e3e 37f7 383e fe96 c23d 69cc a0bd
000003d0: 1e7a 01be 60de 4ebd 97a2 113e 1251 523e
000003e0: 973c 1d3e 798f 963d aef8 cd3c 9ac2 b43d
000003f0: 1628 f9b9 9dbe a8bd d356 5bbe 855c 8bbd
0.09299634 0.17002043 -0.04455045 -0.056817073 -0.11884833 0.14259055 0.06800264 -0.01866297
0.016962672 -0.0860266 0.12676233 -0.102973096 -0.22915092 -0.17622966 -0.08214382 0.03002158
-0.06662607 -0.13688032 -0.13877732 -0.26055673 0.090275295 -0.105047934 -0.02029876 -0.09098424
-0.22170582 0.053610425 0.15645227 0.045636974 0.18571074 0.10651514 -0.12651539 0.0043724515
0.1725978 0.084086515 0.021820065 -0.34699607 -0.087500595 0.17278531 0.035100136 0.0711812
-0.44889674 -0.33188635 0.12742847 0.11306051 -0.04873876 -0.22346215 -0.23988365 -0.056372643
-0.101550065 -0.13593097 0.13837038 0.12111874 0.013242379 -0.055435076 -0.10607 0.016490128
0.18627699 -0.013691214 -0.006189642 -0.06497432 0.06438677 0.10071662 0.04054424 0.038325645
-0.040743276 -0.031176483 0.057877127 -0.07849769 -0.040165156 0.024995148 -0.15962252 -0.11252507
-0.15938543 -0.22085583 -0.375353 -0.037214797 0.05349295 0.095512696 0.15190688 0.031544443
-0.06953026 0.02870854 0.18546815 -0.0120368255 0.004130505 -0.46901426 -0.061779607 0.06289762
0.12999994 0.1512264 -0.6066777 -0.2192815 0.044636533 -0.10028642 -0.2792765 -0.22474866
-0.13622294 0.031309824 0.00953043 -0.13205837 0.09139315 0.017510328 0.115153015 0.0799787
0.029373731 0.054848015 -0.0043934155 0.15846623 0.11393446 0.07844618 -0.15832129 -0.18669952
0.19118498 0.098461375 0.16009672 -0.32479405 -0.35792533 0.10511658 0.18755837 -0.00730039
-0.3038324 -0.33368176 -0.09518418 -0.20662826 -0.18605642 -0.27051285 -0.44023177 -0.059605535
-0.10415742 0.04192414 0.05742932 -0.31169105 -0.15363894 -0.040693816 0.09656502 0.057590473
-0.021051146 0.011561815 0.0031189914 0.022152204 -0.060560502 0.0100708045 0.14371863 0.09643986
0.095654905 -0.24517742 -0.08821312 0.1620517 0.018776348 -0.08593958 -0.008345122 0.13545786
0.084714256 0.05647008 0.114261754 -0.18486205 -0.18634768 -0.09383331 0.036446113 0.12092741
-0.14249274 -0.31362247 -0.19001992 -0.16138068 -0.044928357 0.0053194216 -0.2720934 -0.19814931
-0.116819635 -0.0039635515 0.0077039986 -0.0001482079 -0.09219392 -0.05026514 -0.014149525 -0.10133181
0.034128144 0.0051074945 0.04340322 -0.02877072 -0.18243094 -0.28117618 -0.18521754 0.15963155
0.22139889 0.103619 -0.2895396 -0.44768444 -0.25803745 -0.07543942 0.31458893 0.20454024
-0.002998136 -0.18543798 -0.21668343 0.06450971 0.28060678 0.16019087 0.18493687 0.047807354
0.052802574 0.0069857137 0.09518653 0.020294761 0.0381449 -0.062230404 0.0057160747 0.1424803
0.11765745 0.1684329 -0.09670357 -0.2732701 -0.10217459 0.013271886 0.15452105 0.15005799
-0.1237374 -0.27086857 -0.10631905 -0.18104868 0.109320536 0.014936095 0.0996875 0.0965351
0.02821437 -0.015786063 -0.09582305 0.038250376 -0.0067860833 0.02175195 -0.17816898 -0.27914143
0.04239474 0.13109162 0.28615177 0.12354964 -0.21998145 -0.56784415 -0.20704556 -0.09554428
0.27923515 0.18063055 0.09501456 -0.07851488 -0.1264424 -0.050505042 0.1422218 0.20538738
0.15355144 0.07351584 0.025142994 0.0882618 -0.00047522847 -0.082394816 -0.2141984 -0.06804756

lenet.net.0.conv2.bias f4 [16]
00000000: 0a93 7ebd cedc 4fbd 5124 9bbd 6ad4 053d
00000010: fb21 b63d babe 4fbe 193d 96bd 51d0 483c
00000020: 9a69 cebd 13c0 babc 9c7b debd 32ad 51bd
00000030: 871c d7bd 6c4a d0bd 5bed 1fbe 23a3 963d
-0.062151946 -0.050747685 -0.07575286 0.032673277 0.088932 -0.202876 -0.07335872 0.012256698
-0.10078736 -0.022796666 -0.1086342 -0.051190563 -0.10503488 -0.10170445 -0.15617888 0.073553346

lenet.net.1.fc1.weight f4 [120, 400]
00000000: 87f9 803c ccdf 3fbd 41f4 30bd 13ea e0bc
00000010: 1156 483d b76e 263c 35d0 ee3c 634c dbbc
00000020: 72cb 8dbc 3e61 b63c 6fd4 f73c c517 d8bc
00000030: ce5d 193d 5e76 dabc 9219 abbb 12f0 143d
00000040: f07a b2bc 4192 2ebd a5be 1fbd 295e 5fbd
00000050: ab00 3bbd f4be 2cbd 4468 a53c 287f acba
00000060: be65 ea3c c83a c93c fcaa 4f3c 4e8e 40bd
00000070: f487 24bd d162 36ba b458 603b f5ba 74bd
00000080: 47b5 833c df2f 8abb 2b12 55bc 78e1 0b3a
00000090: 7d85 3dbb 7b94 b93c 754d 863c 6d98 05bb
000000a0: 89ff bbbc 8dfc 3a3d 2eb8 ceba e70c e7bc
000000b0: 6086 f2bc dbc5 abbc cf96 a63c 0810 39bd
000000c0: 5134 bcbc e4c8 583c 2ed1 0abd a4c8 e5bc
000000d0: d04b 8fbc 54c8 b43c 8f03 a6bc 981c 05bc
000000e0: 24e2 fbbc 4135 0f3d 53f3 3fbd 54ed 403c
000000f0: eb32 8abd 1700 19bb 5c5e b3bb c922 0a3c
00000100: 8f7a 46bd 621d 213d c2d9 c63c 3c0f 8f3c
00000110: 2923 42bd 3443 f5bc ec64 58bc a54c 5abd
00000120: 576d d7bb 57bc 033d d95b abbc 5b5b a23c
00000130: a792 33bd 6542 7abd 78a7 f8bc fafd 41bd
00000140: b8ee 54bd 49be 32bb 943a e93c f20a 8c3c
00000150: 40ad cf3a 2717 893c 2473 d23c ebfb 69bb
00000160: 8e5c 3ebc fd97 c8bc 03a2 3b3c f9ec 22bd
00000170: a0ad 33bb 4dd6 95bc 6db1 5abd b01a 083d
00000180: 59d9 7a3c 2589 98bc abc1 893b 96f6 8abd
00000190: 5036 6a3b d2d1 3c3d 3804 65bd 037c 04bd
000001a0: 86b0 2dbd 989b faba da05 15bc 59c8 b7bc
000001b0: aac3 5dbd b9c2 54bd 0517 1e3d feb4 fb3b
000001c0: 1e72 0a3d 8140 17bd 15f4 57bb f720 da3c
000001d0: ce70 f3bc 6378 63bd 0ff0 393c 1e84 a63a
000001e0: 666b 27bd 52cf a2ba 9e4b 39bc 0235 82bd
000001f0: 913f 9bbb f79a 473d 1bb5 8dbc 3de9 7b3c
00000200: 9da0 003d a634 b1bc 103a 72bd 97bc 0e3d
00000210: 037c 2bbd 1c13 14bd 2341 b53c 1e03 a43c
00000220: b4c9 ffbb 6ede 2a3d 4cdb c8bc 97de a5ba
00000230: 6ce7 ed3c e604 7fbc 4351 083d c644 24bd
00000240: 178c 8d3c 4550 43bd 8e06 26bd 81fb 5a3c
00000250: 62bd 193d 82cd a5b8 021c cb3c 800c fcbb
00000260: 93c4 c2bc 6fd4 13bd 07d1 57bd b73b 4dbd
00000270: 6d9d 04bd 5819 30bd 7baa 983a 3c38 583d
00000280: c539 36bc 95a8 06bd 9aed c63c 19b1 28bc
00000290: b775 5abb 6056 0d3d 2174 5abd c3a7 fb3c
000002a0: 6117 98bc 3d31 d4bc 6d31 e7bc 7922 89bb
000002b0: 167f d13c f5e1 f6ba f438 e8ba 59df debc
000002c0: 1918 5abd 1e64 a23c 8a95 02bd a3c9 00bd
000002d0: 7208 0f3d 5b9c 5ebd e8ef e13c a69e ef3c
000002e0: 4af1 28bd c71b 3ebd a5ad 15bd 33e2 05bc
000002f0: 709b 1d3c 1292 e53b 440b d33b ccb2 27bd
00000300: cffa 883c dce6 1dbd 2f1a 493c 9db3 313d
00000310: 4018 43bd 46a6 773c f4ab 48bd 0ae0 07bd
00000320: 990d 403d d76e 20bd f322 e5bc 04a9 dd3c
00000330: eb82 03bd d8d7 bbbc 03f6 3dbd 4fed b73c
00000340: 86e7 1c3d 51bc 0dbd a658 4dbd 07b6 0d3c
00000350: 12cc cd3c 0c5c 53bd 881f 4cbc 2f2b 1ebc
00000360: cd59 61bd b84d 8cbc 1eb0 103c 3d94 eb3c
00000370: eed5 a03c fe54 e93b 64ea 8b3c 2520 dcbc
00000380: 6242 463c f3f9 123b 6d94 40bd 7312 383d
00000390: 255a 89bd 0269 24bd c2f2 92bc d5ae f43b
000003a0: 002d a0bb 22a7 9c3a 44f8 1fbb fe0c 113c
000003b0: a2c0 3c3b c8d8 003d acd2 123c 6cd5 01bd
000003c0: 0924 e73c 6059 973a bedb 47bc 8261 83bc
000003d0: ed95 ccbc f6e1 4d3d 6b43 44bd a862 443b
000003e0: ddf3 623c d55f 3abd 013f 3f3d fed5 fe3c
000003f0: 00b9 f6bb 3d14 4a3d 316f 253d d6cf 91bc
0.015743984 -0.04684429 -0.04320169 -0.027455365 0.048910204 0.010158232 0.029152015 -0.026769822
-0.017308924 0.022263166 0.030252663 -0.026378522 0.037442975 -0.02666777 -0.005221554 0.03636176
-0.021787137 -0.042619947 -0.039000172 -0.054533157 -0.045654934 -0.042174295 0.02019132 -0.0013160454
0.028612968 0.024564162 0.012675043 -0.047010712 -0.040168718 -0.0006957474 0.0034232559 -0.05974861
0.01607765 -0.0042171325 -0.01300482 0.00053360267 -0.0028918677 0.022653809 0.016394356 -0.0020385042
-0.022948997 0.045651007 -0.0015771443 -0.028204395 -0.02960509 -0.020968368 0.020335583 -0.045181304
-0.022974165 0.01323149 -0.033890896 -0.028049774 -0.017492205 0.02206818 -0.020265369 -0.008124493
-0.03074748 0.034962896 -0.04686291 0.011775333 -0.06747993 -0.0023346 -0.005473895 0.008431145
-0.048456725 0.039334662 0.024273757 0.017463319 -0.047396813 -0.029939272 -0.013207655 -0.05329575
-0.0065743136 0.032162037 -0.02091782 0.019818952 -0.04384103 -0.061098475 -0.030353293 -0.04736135
-0.051985472 -0.0027274063 0.028470315 0.017095063 0.0015844479 0.016734673 0.025689669 -0.0035703133
-0.011618746 -0.024486536 0.011452201 -0.039776776 -0.002741672 -0.018290663 -0.053391863 0.033228576
0.015310609 -0.018620083 0.004203995 -0.06785314 0.003573794 0.046098538 -0.055912226 -0.03234483
-0.042404674 -0.0019119857 -0.009095633 -0.0224344 -0.054141678 -0.051943514 0.038596172 0.007681488
0.033800237 -0.03692675 -0.003295188 0.026627047 -0.029716875 -0.05553473 0.011348738 0.0012704169
-0.040873908 -0.0012421405 -0.011309532 -0.06357767 -0.0047378023 0.04873177 -0.017298272 0.015375433
0.031403173 -0.02163155 -0.059137404 0.034847822 -0.041866314 -0.036151037 0.022125786 0.020021018
-0.0078060273 0.04171603 -0.024518631 -0.0012654838 0.029041015 -0.015565133 0.033280622 -0.04010465
0.017278714 -0.047683973 -0.040533595 0.013365627 0.037534125 -7.906092e-05 0.024793629 -0.00769192
-0.023775375 -0.036091264 -0.05268958 -0.050105777 -0.032376695 -0.04299292 0.0011647487 0.052788004
-0.011122172 -0.032875616 0.02428322 -0.01029613 -0.0033334324 0.0345062 -0.053333405 0.030719643
-0.018565835 -0.025902385 -0.02822181 -0.0041850177 0.025573295 -0.0018835651 -0.0017717169 -0.02720611
-0.053245638 0.01982313 -0.031880893 -0.031442296 0.034920163 -0.05434833 0.027580217 0.029250454
-0.041245736 -0.04641321 -0.036542553 -0.008171606 0.009619579 0.0070059383 0.006440552 -0.040942
0.016721157 -0.038550243 0.012274309 0.043384183 -0.04763055 0.015115326 -0.048992112 -0.033172645
0.046887968 -0.039168205 -0.027970767 0.027058132 -0.032107275 -0.02293007 -0.046377193 0.022452025
0.038306735 -0.03460342 -0.05013337 0.008649356 0.025121722 -0.051601455 -0.0124586895 -0.00965385
-0.05501728 -0.017126903 0.008831052 0.028757209 0.01963326 0.0071207276 0.01707954 -0.026870796
0.012100788 0.0022426813 -0.04701655 0.04493947 -0.06706647 -0.040139206 -0.017938022 0.0074671307
-0.004888177 0.0011951665 -0.0024409452 0.008853195 0.0028801342 0.03145674 0.008961361 -0.031697676
0.028215425 0.0011547022 -0.012198387 -0.016037706 -0.024973834 0.05026432 -0.047915857 0.002996603
0.013852087 -0.04550155 0.046690945 0.031107899 -0.007529378 0.049335707 0.040389244 -0.0177993

lenet.net.1.fc1.bias f4 [120]
00000000: 08ec 4dbd e492 93bc b298 8f3b 3903 353d
00000010: 52a0 a4bc c7b6 353c 3555 de3c 137a 6bbd
00000020: 5392 d3bc 9882 43bd 0192 29bd eba9 08bd
00000030: ee20 42bd 25e9 8bbd 49d0 503c ca30 453d
00000040: 63bc bebc 4bcf f7bc ea5c fe3d 2d1d ecbc
00000050: dedf 9d3c 63d7 99bd 96ff 02bd 33bb 50bc
00000060: fa00 133d 8118 ebbb e79d 18bd 4979 a4bc
00000070: 02b9 57bd 05b1 1b3d cc7d a23c 1687 40bd
00000080: 9f10 fa3d ac4d b53d d748 45bd 0630 dabc
00000090: 51c8 fbbc efdc 5fbd 7433 85bc 8491 743c
000000a0: 26fc 14bd f5e8 863c 4a9a c93d fdc5 193d
000000b0: 44b9 753d 1a4c 50bc f7b6 e93d 514b a23d
000000c0: 078e 693d 4b6f 8bbc 167d 68bd 08e8 3dbd
000000d0: 24e7 683c 37d5 203b 1f84 26bc 2aa9 f73b
000000e0: 5db5 97bb d27e c83d 101c f53d 1773 023e
000000f0: a8ee cb3d 5160 fe3c e8e8 97bb a25a 073c
00000100: 63db e03c 148a 7a3d d2ea 37bd edad 093d
00000110: 93fd 123d 54d5 d9bd 9083 06bd 0c44 d93d
00000120: c4fd 6a3c baeb 05bc a742 633d 2dda cbbc
00000130: 8a70 8d3b 99af 7ebd 32d3 8c3d 7f7e b4bd
00000140: 286c 91bd d792 bc3c dbe8 95bd 90ee 09bc
00000150: dc52 8bbc 8849 c83d 5d6f 483c 883a 813c
00000160: c2d4 23bd 5e12 c03c 4ec7 a9bc 520c 1fbd
00000170: eb5b 5b3d fae3 7cbd 3a2b 5d3d 5cdb 5db9
00000180: 385d cf3c 1641 a4bd 7420 5cbd ab00 083d
00000190: 4c7c 99bc 080f aebd 2cc2 3a3c b72a d6bc
000001a0: 5bc0 7cbd 3334 e5bc eaab b2bd 12bc 60bd
000001b0: 12b5 c43c b161 843d 4224 9e3c 5d97 353d
000001c0: 74b2 cabd 7fa3 85bd f94b 18bd cfef b13c
000001d0: 4bb0 5a3d d5eb b33c b137 2ebd 507c 09bd
-0.050273925 -0.018014379 0.0043822164 0.044192526 -0.020095978 0.011090941 0.02714024 -0.057489466
-0.025826609 -0.047731966 -0.041399006 -0.03336517 -0.047394685 -0.06831578 0.012744972 0.048142232
-0.02328319 -0.030250212 0.12420066 -0.028822506 0.019271787 -0.07511785 -0.031982027 -0.012739944
0.035889603 -0.007174552 -0.037259962 -0.020077365 -0.05266667 0.038010616 0.019835375 -0.047003828
0.122102015 0.08852705 -0.04816517 -0.026634227 -0.030735167 -0.054654058 -0.016259886 0.014927272
-0.03637328 0.016468504 0.098438814 0.037542332 0.059991136 -0.0127134565 0.11411851 0.07924522
0.057020213 -0.017020842 -0.056759916 -0.04636386 0.0142152645 0.0024541148 -0.010163336 0.0075580077
-0.0046297745 0.09789814 0.11968243 0.12739216 0.099576294 0.031051787 -0.004635919 0.008261355
0.027448362 0.061166838 -0.044901676 0.033613134 0.03588636 -0.10636392 -0.03284031 0.10608682
0.014342729 -0.008173877 0.055483487 -0.024884308 0.004316394 -0.06217918 0.0687622 -0.0881319
-0.07100707 0.023019237 -0.07319804 -0.008418694 -0.017007284 0.0977965 0.012233582 0.01577498
-0.039997824 0.023446258 -0.020724919 -0.03883011 0.053554457 -0.061740853 0.053996302 -0.0002115792
0.025313005 -0.08020227 -0.053741887 0.033203762 -0.018736027 -0.08498961 0.011398833 -0.026143415
-0.061706882 -0.027978992 -0.08724196 -0.054866858 0.024012122 0.06463946 0.019304398 0.044333804
-0.098973185 -0.06525325 -0.03718183 0.021720795 0.053390782 0.02196304 -0.04253358 -0.03356582

lenet.net.1.fc2.weight f4 [84, 120]
00000000: 882b 53bc 3a56 01bd 994e a13d bcc0 81bd
00000010: 6664 99bd 159c 2cbd 5fca 71be 805f 383c
00000020: fcf8 983c 60b0 7ebc b102 1a3e a64b 1e3d
00000030: 7a43 04be 74ce 613d 8d77 9c3c edb9 22bc
00000040: 4058 85bb 8115 2dbe 16b4 8e3d 1c34 193d
00000050: bf86 d13d feac b73d 48be 37be a21f 963d
00000060: 5f1e 8fbe fc91 dc3d 04d0 8abd 681c 1ebd
00000070: c880 593d 7398 77bd 8893 e9bc 18fd 0abc
00000080: 2d49 113e ef65 87bd 0278 53bd ce8b 95bd
00000090: e7ca 053d 40a8 41bc d414 573d 66e0 23bd
000000a0: fd1c 643d 5c90 05be 8727 4c3d a071 9ebd
000000b0: f68c 6b3d c43f 98bc 7a11 763a 90f2 12be
000000c0: cd12 77bd 35b6 44bc c379 0fbd ebdb 79bc
000000d0: c69f 27bd f866 3abe cbaa 563e fe7e 023d
000000e0: d1f9 4fbe c3c4 2dbe 2374 403d 2f3b f23c
000000f0: 991c ddbd 0974 1f3d 29c9 d4bd 06f4 e2bd
00000100: c413 803e ef35 913b b05d 833b 20d3 9e3d
00000110: c6c2 cabd e27b 8dbd d82a 83be f943 b43d
00000120: abf3 46be 26e8 7fbe a80f 0ebe 4886 793d
00000130: 3a74 f23d e475 103d f0cc d53d 5c05 eebd
00000140: 62bc d63d 02d9 d53d 54ff 4cba 807d 1fbe
00000150: a064 163e fe85 043e c28c f4bc 1845 77bc
00000160: beab aebd ee6b 843d 7343 bd3d 562a f23d
00000170: 738f 4cbe 36eb ae3c c43f 36bc 7ebe a83d
00000180: 9fa8 81bd 05c5 43be 7578 27bc a704 9ebd
00000190: 90a4 233d 1fa8 223d 1ebd 993d 69c9 083e
000001a0: 5fc2 a0bd 4daf 8abd b763 223e c83b 183c
000001b0: 483a 17be 31bf 6e3d b3bd 11be 1cc7 dcbd
000001c0: 6e58 eebd e7b7 45be e3b4 923d ae8e 303d
000001d0: b85a a5bd 1092 f2bd f071 183d d8dd 7a3d
000001e0: a5b4 9dbd 2931 973d 05c2 3d3e 8b29 1a3e
000001f0: 085c 4bbc 6803 273e 8c43 e9bd cdd0 8f3d
00000200: c9bc 383d e4fe 8fbd da57 88bc e4c8 54bd
00000210: 02bc 4bbd b70c 1ebb 9694 243e c266 bc3d
00000220: f17e 0b3d 339b d43d 6403 3d3d 77b2 203d
00000230: 77ce 24bd 8f1d e83c 39ca 003e 3da4 55be
00000240: 1c9f 85bd c76e cf3c abc3 ec38 2dc8 f6bd
00000250: 27f9 91bd 8eb4 a83c ccd7 003e 49da 833d
00000260: 9489 0f3e cd08 1d3e ad7e 103d f2ff 1d3d
00000270: 06cc aebd 506c a3bb 68a3 a9bd 6845 13bd
00000280: 18b1 973d 55f6 183d 5b7e 9bbc cb8f d73d
00000290: 01d8 08be ebf4 2cbe ac8f 943b 3c0e 80be
000002a0: c234 cdbd 22b8 b1bd 3c7c e93c 2f5b 963c
000002b0: 024a abbd 70e9 e8bb 63b0 9abe 97b8 963d
000002c0: c269 833d 275a 323d aebc 7cbc 5240 cdbd
000002d0: 7af8 1cbd a9dd 84bd ddba c8bd 96bc e3bd
000002e0: 9c31 4fbe dfc3 32be 7902 2cbd 24db f43d
000002f0: d4b0 6ebc 6131 333d edad eabd 6b00 053d
00000300: 3578 f53c a3ad 173d 2437 6cbd cdf0 31bd
00000310: e212 683d 345f 71bd e491 3e3e 51fb c43d
00000320: 2b91 d13c 2222 623d 61c0 133e 3792 ce3d
00000330: 1963 9abd a3d9 e63c 7a9b 303e d788 9b3d
00000340: 1554 fabd 9b21 b13c 9ac9 4bbd 60ae 5d3d
00000350: b7c4 adbd 266c a13c 3121 793d b263 d23d
00000360: 3345 8fbe 1778 75be d2de 4f3e f7a1 c33d
00000370: 5663 123d fa27 bebc 5359 7c3b 9a84 72bd
00000380: 09d6 103c b259 113c 6cf8 0dbe 23a6 19bd
00000390: e742 7f3c 4542 003e 1c1f 5f3d a729 35be
000003a0: 2ca5 573d 3084 babc 5989 04bc d382 34bd
000003b0: 7aae 4cbc f6e9 03bd 0480 0e3d 9e27 003d
000003c0: c607 1c3d 5004 97bc 4090 21bd 3a67 eabd
000003d0: 888e 6cbd 6017 78bc ba82 33be d3cb 5a3d
000003e0: d33b 6c3c f068 223c 7021 2c3e c8ee 423c
000003f0: 55a7 be3c bc8c 8dbd 386a 533e 513a 5fbd
-0.012888797 -0.031576373 0.078763194 -0.06335589 -0.074898526 -0.04214104 -0.23612355 0.011253238
0.018673413 -0.015544981 0.15040089 0.038646363 -0.12916365 0.05512853 0.019099975 -0.0099320235
-0.004069358 -0.16902734 0.069679424 0.03740321 0.10230779 0.089685425 -0.1794368 0.07330252
-0.2795286 0.10770032 -0.06777957 -0.03860131 0.05310133 -0.06044812 -0.028512731 -0.008483194
0.1418807 -0.06611239 -0.05162812 -0.07302056 0.032664206 -0.011819899 0.052510098 -0.040008925
0.055691708 -0.1304335 0.049842384 -0.07736516 0.057507478 -0.018585093 0.00093867595 -0.14350343
-0.060320664 -0.012006332 -0.03502823 -0.015250186 -0.040923856 -0.18203342 0.2096359 0.03185939
-0.20310141 -0.1696959 0.046985757 0.029569237 -0.1079647 0.03892902 -0.10389931 -0.110817
0.2501508 0.004431478 0.004008971 0.07755113 -0.09900431 -0.069083944 -0.25618625 0.08802027
-0.1942889 -0.24990901 -0.1387316 0.060919076 0.11838575 0.03526868 0.10439479 -0.11622116
0.1048515 0.104417816 -0.0007820029 -0.15575218 0.14686823 0.12941739 -0.029852275 -0.015092157
-0.08528851 0.064658985 0.092413805 0.11824481 -0.19976597 0.021352392 -0.011123601 0.082394585
-0.0633099 -0.19118126 -0.01022159 -0.07715731 0.03995186 0.039711114 0.07506774 0.13358082
-0.07849573 -0.06771717 0.1585835 0.009291597 -0.14768326 0.058287803 -0.14232521 -0.107801646
-0.116379604 -0.19308434 0.07163408 0.04310482 -0.08073944 -0.118442655 0.037218034 0.061246723
-0.07700471 0.073824234 0.18531044 0.1505491 -0.012412079 0.16309893 -0.11389837 0.070222475
0.045101915 -0.070310384 -0.016643453 -0.051949397 -0.049739845 -0.0024116465 0.16072306 0.09199287
0.034056608 0.103811644 0.04614581 0.039232697 -0.040235963 0.028334407 0.12577142 -0.20863433
-0.06524488 0.025321377 0.00011289803 -0.12049899 -0.071276 0.020593908 0.1258232 0.06438119
0.14017326 0.15335388 0.035277057 0.038574167 -0.08535008 -0.004987277 -0.082831204 -0.035954863
0.07406825 0.037344296 -0.01898115 0.10525473 -0.13363649 -0.16890304 0.0045337286 -0.2501086
-0.100198284 -0.08677699 0.028501622 0.018354027 -0.08363725 -0.007107906 -0.30212697 0.073594265
0.06416656 0.043543007 -0.015425844 -0.10022034 -0.038322903 -0.06487591 -0.09801266 -0.11119954
-0.20233768 -0.17457531 -0.041994546 0.1195586 -0.014568526 0.043748263 -0.11458955 0.0324711
0.029964546 0.037030827 -0.057669774 -0.043442536 0.056658633 -0.058928683 0.1861034 0.09618247
0.025581917 0.055208333 0.14428855 0.10086482 -0.07538433 0.02817995 0.1724681 0.075944595
-0.122230686 0.02162247 -0.04975281 0.054121375 -0.08484786 0.01970489 0.06082267 0.102729216
-0.27982482 -0.23971592 0.20299843 0.09552377 0.035739265 -0.023212422 0.003850539 -0.05920849
0.008840092 0.008871483 -0.13864297 -0.037511956 0.015579916 0.1252528 0.054473028 -0.1769167
0.052647755 -0.02276811 -0.008089387 -0.044070076 -0.01249277 -0.032205544 0.034790054 0.031287782
0.03809335 -0.018434674 -0.03944421 -0.1144547 -0.057753116 -0.015142292 -0.17530337 0.05341704
0.01441856 0.009912714 0.1680963 0.01189775 0.02327315 -0.069116086 0.20645988 -0.054498974

lenet.net.1.fc2.bias f4 [84]
00000000: 6f9f 48bd a16e fe3c 00e9 963d daa1 fbbc
00000010: 2190 22bd 8f47 c0bd 1043 29bc 2b9a 8d3d
00000020: 5908 2f3e daab f43d 08ee 4e3c c855 1d3e
00000030: 4ad4 a03d 5656 82bd 1ad8 97bd c31e 5ebd
00000040: 8585 debc a0d6 eabd eaf8 903d d649 473d
00000050: 5668 923d d295 bdbb b33a 6a3d 8215 01be
00000060: cc4d 073e a8a9 95bd 29a1 d33c 2c73 96bc
00000070: dc97 1a3d 459d 473d cad1 cc3b 1d5b 873c
00000080: 0673 e63d fafb 0a3d d61f a8bd 7719 ac3d
00000090: 5e2e 503e fcc3 41bd 6971 b53b f2fe 103e
000000a0: 6e33 d4bc e14e c1bd e0b7 c2bd 3626 0bbd
000000b0: 1c77 883c aaa7 05bd a04d 0ebb d7b8 933d
000000c0: 7f52 373c 3204 7d3d 9a51 6b3d 8a88 213d
000000d0: 5669 8d3d 08fa 11bd 4bf7 953d 95f3 213e
000000e0: e790 073d 6c85 de3d 7338 b6bd c9ca 983d
000000f0: f42d 9c3d 0cf8 82bc 6b8a 67bc 62c1 ddbd
00000100: 9b04 db3d 19e8 183d 4296 f2bd 3578 adbc
00000110: 3331 d1bd 8f09 cb3c 52e2 7f3d 2786 fb3c
00000120: 0731 56bd 327b d5bc 86ae ae3d 3ff5 8f3a
00000130: c4cc e83c 86b1 883d ca96 8e3d 1ce2 023d
00000140: ec8c a53b c406 a4bd 9a99 b1bd 6e67 e13d
-0.048980173 0.031058611 0.0736866 -0.030716825 -0.039688233 -0.09388649 -0.01033093 0.06914171
0.17093028 0.119468406 0.012629993 0.15364754 0.07852991 -0.063641235 -0.07414265 -0.054228555
-0.027163276 -0.11466718 0.070787266 0.0486544 0.07148807 -0.0057856822 0.057184886 -0.12605861
0.13213271 -0.0730775 0.025833683 -0.018365465 0.03774248 0.04873397 0.0062505947 0.016522938
0.11252408 0.03393171 -0.08209197 0.084032945 0.20330188 -0.047306046 0.005537201 0.14159754
-0.02590343 -0.09438873 -0.095077276 -0.033971988 0.016658358 -0.0326306 -0.0021713749 0.0721299
0.011189102 0.06177158 0.05745087 0.039436854 0.06904857 -0.03563884 0.07322558 0.15815575
0.033097174 0.10865292 -0.088974856 0.07460553 0.07625952 -0.015987419 -0.0141321225 -0.108279005
0.10694238 0.03733072 -0.11845066 -0.021175483 -0.10214462 0.024784831 0.062471695 0.030703617
-0.05229285 -0.02605972 0.085293815 0.0010983123 0.028417952 0.06674485 0.069623545 0.031953916
0.0050521996 -0.08009103 -0.08671875 0.11006056

lenet.net.1.fc3.weight f4 [10, 84]
00000000: d8f8 993d 5a8f afbc e4ba 5e3e 4550 9abd
00000010: 9a94 3c3e 6738 e9bc 6650 c5be 1d22 51be
00000020: a3fe 4fbe e46e 08be 1828 02be 6f03 97be
00000030: 74ec 5abc 94ff abbd 5a80 50bd 7e31 06be
00000040: 548b 7dbe 0a78 cd3b 12fb 843d 6d20 4e3d
00000050: c065 c33b 253b 81be 6b3e 893c d7a1 e6bd
00000060: c5f9 5a3d 03d0 83bd 1729 56be 3e28 093e
00000070: 1326 aebd db96 58be fe5f f5bd 861a 39bd
00000080: a047 02be 9ca4 f6bd 1892 59bc 56ea 72be
00000090: 207e 1c3e e08e 81be e186 51be c200 e03b
000000a0: 336b 163e f2c1 7a3d ef96 053c 73b0 733e
000000b0: b014 19be df81 cc3d 6bcb 063e 3af7 99bd
000000c0: fff9 e53d 1275 2abe 19d8 a03d 4553 48be
000000d0: 5a41 73bd 757a 143d a34a cd3d e7fa 1abe
000000e0: 1f5a e8bc d551 40be b154 bebd becd 48bd
000000f0: 5c0a 003e 9d79 6fbe 7ce1 49bd bfcd ebbd
00000100: 2578 2a3e a6e7 abbd 9994 32be c154 aebd
00000110: 6263 e3bb 9554 823d 2493 6dbe a4af 253d
00000120: ed3f ddbc b4c8 76bd 480e e13d b6c5 63be
00000130: c35b 0dbd 1232 3ebe a0ba 3fbe 75e8 863c
00000140: 3476 c23d 1b2d 203c 38f9 efbd fa31 713d
00000150: d6f9 7abe df50 fabd 8162 58bd 9826 0ebd
00000160: 4c0e 823c 89cb adbd 89d7 c23d e5e5 0ebd
00000170: 5626 31bd b385 4fbe 5c38 9cbd 7c0e 79be
00000180: 765a 81be d1fa 13be 7641 84bd 30dc 913d
00000190: 9091 023e f46d bf3d fd07 76be 2abb f4bd
000001a0: 1b22 6fbe 12b0 133e 4616 83bd 8b98 00be
000001b0: 1b6d 56bd fedf 5dbe a5c9 86be 373a a3bd
000001c0: 5723 fbbd d980 103e 4b7b cb3d 1825 433e
000001d0: 598f 33bd 7208 573e 8ef7 c13d 5f91 02be
000001e0: 4b1b 3fbd 4845 6cbc bf75 223e 5402 36be
000001f0: 34fc 413d 4d6c 82bd 61a8 95be 8d51 693e
00000200: 0ebf 88bd 99d2 8a3d 9587 383e 268e 4fbe
00000210: ec8c 003d c2f3 203e 4369 853c 6cc6 123e
00000220: 01f7 6ebe d4b3 383d 646b 4ebe fb2a 0cbe
00000230: 8294 e73d fe2d 263e 4227 6b3d 8ec9 48be
00000240: 30bb 4ebd 07a8 c2bc c2bd 00bd a2e9 3c3d
00000250: 9a13 aebc 8440 f5bd 1520 4ebe 056d 8dbd
00000260: 0e2a 763e a7e9 433d 5261 6ebe 5ee4 abbb
00000270: f2f0 043e 05fc 97bd c90b 87be a05e 36be
00000280: 1a1b 70bd f337 e83c aa02 ec3d 438b a93d
00000290: 8d06 12be 8557 e6bd 156c 4abd 68a9 4cbe
000002a0: 5664 eebd 2b70 3d3e 7c9d 2a3d 718f b73d
000002b0: e009 c03c 8750 623d 7884 3dbe e3d2 35be
000002c0: 7183 a3be 298b 1fbc fb78 e43d 7bc4 1a3e
000002d0: 2c4c 13be a153 c3bd 3e49 4e3d 22be 4cbe
000002e0: 510f 0ebc 4aa4 763d 4529 61bd eb32 983d
000002f0: 39e6 90be b2bf 86be b3a7 123e 1cab 00bd
00000300: 3c55 fc3c cf49 a6be 40aa 673e ddbd 31be
00000310: a0ad 49bd b840 01bd 0319 d23d fdba c2bd
00000320: a62c fcbd 13a4 c83a 7623 7ebe a858 353d
00000330: 7a97 053e 3fb4 81bd d092 f23d ad87 e6bd
00000340: 9c95 0a3d 68bf 2fbd b06f b0be 6c91 70be
00000350: ebd5 a33d b946 01bc ff5f 7fbc 5f95 533d
00000360: 5a40 d13b 11fc 64be c058 65be 102a 403d
00000370: 6d34 293d 200d 033d 5b87 b23d 9498 39bd
00000380: a7dd a23d ea06 573e f06b 703d 2dcd 33bd
00000390: 72c3 95bd d537 843e 8bdb 253e d650 79bd
000003a0: cf28 edbb 4927 e43d 72c8 423e 1a7a 323d
000003b0: 42eb 7d3d 499a 0dbe 9369 25be 310b 19be
000003c0: fea3 41be 042c e3bd 6a3b 47be 8710 8dbd
000003d0: 5d38 e83d c61b cdbc 3990 b8be 1efd 20be
000003e0: 121a 863c 1fcb 95bd 7cd6 cabd 834f 533e
000003f0: 6804 0dbe 74d6 dfbd 1800 37be 8217 89be
0.07518166 -0.02143066 0.2175098 -0.075348414 0.18416062 -0.028469278 -0.38537902 -0.2042317
-0.2031198 -0.13323551 -0.12710607 -0.29494807 -0.013362039 -0.08398357 -0.050903656 -0.13104817
-0.2476018 0.0062704133 0.064932 0.050323892 0.0059630573 -0.25240436 0.016753396 -0.11261337
0.053460855 -0.064361595 -0.20914112 0.13394257 -0.08503356 -0.21151297 -0.119812 -0.04519131
-0.12722635 -0.120431155 -0.01327946 -0.23722205 0.15282488 -0.25304317 -0.20461608 0.006836028
0.14689331 0.061220117 0.008153661 0.23797779 -0.14949298 0.099857084 0.13163535 -0.07517858
0.112293236 -0.16646221 0.07853717 -0.19563015 -0.059388496 0.036249597 0.100240014 -0.15134774
-0.028363286 -0.18781216 -0.09293497 -0.049024336 0.12503952 -0.23386236 -0.049287304 -0.11513852
0.16647394 -0.08393793 -0.17439498 -0.08512259 -0.0069393376 0.06363789 -0.23200661 0.040450707
-0.027008021 -0.06025 0.10989052 -0.2224339 -0.03451134 -0.18573788 -0.18723536 0.016468266
0.09495202 0.009776379 -0.117174566 0.058885552 -0.24509367 -0.12222456 -0.052828316 -0.034704775
0.015875958 -0.08486087 0.09513766 -0.034887213 -0.04324945 -0.20265846 -0.07627937 -0.24321932
-0.2526433 -0.14451148 -0.06457798 0.071220756 0.1275084 0.09347144 -0.24026485 -0.11949761
-0.23352854 0.14422634 -0.06400733 -0.1255819 -0.052350145 -0.21667477 -0.26325718 -0.07970088
-0.122626 0.14111651 0.09935626 0.19057119 -0.04383788 0.20999315 0.094710454 -0.12750767
-0.046656888 -0.014420815 0.15865229 -0.17774326 0.04735966 -0.06368313 -0.29230025 0.22785015
-0.06677066 0.067784496 0.1802047 -0.20269069 0.031384394 0.15717986 0.016285544 0.14333504
-0.23336412 0.045093372 -0.20158154 -0.13688271 0.113076225 0.16228482 0.057410486 -0.19608137
-0.050471485 -0.023761762 -0.031430967 0.046121247 -0.021249581 -0.11975196 -0.20129426 -0.069055595
0.2403948 0.04783025 -0.23279312 -0.0052457293 0.12982538 -0.07421116 -0.2637618 -0.17809534
-0.058619596 0.028346991 0.11523946 0.08278515 -0.14260311 -0.11247162 -0.04941948 -0.19986498
-0.11640231 0.1849982 0.041654095 0.08962906 0.023442209 0.055252578 -0.18507564 -0.17756228
-0.3193622 -0.009737768 0.11155888 0.15114014 -0.14384526 -0.09537435 0.050362818 -0.19994405
-0.008670644 0.060215272 -0.054971 0.07431587 -0.28300646 -0.26318127 0.14321785 -0.031413183
0.030802362 -0.32478186 0.22623539 -0.17357583 -0.049237847 -0.03155586 0.10258677 -0.095083214
-0.123132035 0.0015307687 -0.24818215 0.044274002 0.13046065 -0.06333207 0.118444085 -0.11256347
0.033834085 -0.04290715 -0.3446021 -0.23492974 0.07999786 -0.007890397 -0.015586852 0.051656123
0.006385845 -0.2236178 -0.22397137 0.046915114 0.041309763 0.03199494 0.08717223 -0.045311525
0.07952433 0.20998731 0.058696687 -0.043896843 -0.07312669 0.25823846 0.1619703 -0.060868107
-0.007237531 0.111403055 0.19021776 0.043573476 0.061991937 -0.13828386 -0.16153555 -0.14945675
-0.18910214 -0.1109238 -0.19456258 -0.06887918 0.113388754 -0.025037657 -0.36047533 -0.15721557
0.016369853 -0.07314133 -0.09904191 0.206358 -0.13771212 -0.109295756 -0.1787113 -0.26775748

lenet.net.1.fc3.bias f4 [10]
00000000: 13a0 ae3b 91cd c5bd 6d4b 4d3d 6e7b 803c
00000010: e6bf 9cbd f2aa e1bd a99d 0dbe cc0a d23c
00000020: ee4a 363e 3ed0 4bbd
0.005329141 -0.09658349 0.05012076 0.015683856 -0.07653789 -0.11018933 -0.13829674 0.025639914
0.17802021 -0.049759142

exp_avg f4 [6, 1, 5, 5]
00000000: 9986 023c 5b44 cb3b bd0c d13b 58d1 653b
00000010: 47ac 1dbb 3b13 c43b d334 a73b fd77 d73b
00000020: 1505 983a 98e4 a4bb fa34 be3b cd51 c13b
00000030: ecab cd3b 6287 8339 03a8 8cbb ce64 f23b
00000040: 27ed f23b 2966 c53b 8db0 9e3a c194 25bb
00000050: c694 0d3c 5fea f13b 9566 9c3b c16d c0ba
00000060: 8757 7cbb 7dbd 35bb 2910 81bb 8642 85bb
00000070: 9319 79bb 95f0 67bb 1ba8 76bb 66a9 93bb
00000080: 871d b5bb 1fb1 a2bb c493 94bb 5835 aabb
00000090: dfcc 92bb fd82 aabb 804e 68bb 7293 96ba
000000a0: 529b 8ebb a67d 5ebb c539 22bb 1d3a 3c3a
000000b0: 1711 1b3b 577e 01bb 700d 6dbb e5e4 36bb
000000c0: 29f1 e939 9c05 003b 8062 293b 612f d83a
000000d0: 1229 8238 3803 64ba 4630 f8ba 045e 3f3b
000000e0: 3f0c 253b 5afb 873a 379e b8b9 8af1 23bb
000000f0: dc9a a33b 0815 a13b 6338 2d3b d1a6 af37
00000100: 2a00 ddba fdfd ab3b df42 6e3b 8bd3 47b9
00000110: 79a7 5dbb 6812 7dbb 16df 453b fe91 6a3a
00000120: 8eca 12bb b8ff c0bb 1a80 babb 31b2 89bb
00000130: fa87 a4bb 2308 6fbb 4ac6 0cbb 38cc c7ba
00000140: cab3 b5bb 99b3 86bb a472 4fbb 5388 feba
00000150: 455e e8b8 ce98 d8bb 6ea6 8cbb f6e1 11bb
00000160: 7853 563a 0b36 833b 94ea 97bb 1308 18bb
00000170: 43e5 0d3a eae5 ab3b b509 053c f0c4 9eb9
00000180: a1d7 23b8 135f 433b f118 bc3b cef1 e83b
00000190: 3195 fbbb 602d bdbb 191d 80bb cb0a 3abb
000001a0: 89b7 32bb dec8 08bc 466e b7bb 61aa 3bbb
000001b0: a668 afba 83ef e6b9 498c 1cbc 7e8a a3bb
000001c0: 18ea 03ba 9071 9838 879f 0a3a 53b6 07bc
000001d0: a1ed 68bb f921 5dba 4742 9bba a6c8 12ba
000001e0: f31f 8ebb b78b 1cbb 75e6 80ba 9b0e 5cba
000001f0: ac4f 5dba b766 ebba 95e2 8239 b77c 923b
00000200: 374e 153c bac0 413c b1a6 ee39 db7b 3b3b
00000210: 4007 b53b 3f32 053c 6b99 163c e58e 9b3a
00000220: 802f 673b e748 643b cd79 523b e0de b23b
00000230: 36fe 1d3b 3954 443b 11dd a33a 4ff7 e03a
00000240: bfe9 8f3b 5a66 1e3a 9e10 e93a ba7d 9d3a
00000250: d8fb b73a 49da 283b
0.007966661 0.006203217 0.0063796923 0.0035067406 -0.0024058984 0.0059837378 0.0051027327 0.006575583
0.0011598194 -0.0050321333 0.005804655 0.005899644 0.006276598 0.00025087135 -0.0042924895 0.0073972708
0.0074135247 0.0060241413 0.001210706 -0.0025265666 0.008641427 0.0073826755 0.004772971 -0.0014681147
-0.0038504319 -0.0027731352 -0.003938694 -0.004066768 -0.0038009628 -0.00353912 -0.003763682 -0.004506278
-0.0055272016 -0.004964962 -0.0045342166 -0.0051943474 -0.004479989 -0.0052036033 -0.003544718 -0.0011488034
-0.0043520117 -0.0033949404 -0.0024753672 0.00071802904 0.002366131 -0.0019759142 -0.003617134 -0.0027907428
0.00044620901 0.0019534593 0.0025846064 0.0016493612 6.206533e-05 -0.00086979894 -0.0018935285 0.0029200325
0.0025184301 0.0010374591 -0.00035213094 -0.0025015795 0.004992826 0.004915837 0.0026431314 2.0939306e-05
-0.0016861011 0.0052487836 0.0036355776 -0.00019056925 -0.0033821745 -0.0038615707 0.0030192784 0.0008948146
-0.0022398564 -0.005889859 -0.0056915404 -0.0042021503 -0.0050210925 -0.0036473356 -0.0021480494 -0.0015243357
-0.005545114 -0.004110765 -0.0031654024 -0.001941929 -0.00011080181 -0.0066100126 -0.004292301 -0.0022259927
0.000817589 0.004004245 -0.004636118 -0.0023198172 0.0005412886 0.0052459138 0.00811999 -0.00030282838
-3.906305e-05 0.0029811307 0.005740278 0.0071089035 -0.007677697 -0.0057732314 -0.0039097187 -0.002838778
-0.002727004 -0.008348672 -0.0055978624 -0.002863549 -0.0013382628 -0.0004404747 -0.009554931 -0.004990875
-0.0005032136 7.2690775e-05 0.00052880537 -0.008283216 -0.0035542028 -0.0008435543 -0.0011845314 -0.0005599357
-0.0043373047 -0.0023886987 -0.0009834307 -0.00083945104 -0.0008442353 -0.0017959689 0.0002496435 0.0044704336
0.009112886 0.011825735 0.00045519092 0.002860776 0.005524546 0.008129655 0.009191851 0.0011868147
0.0035276115 0.0034833492 0.0032116056 0.0054586977 0.002410782 0.0029957427 0.0012501796 0.0017163547
0.0043918784 0.0006042473 0.0017781442 0.0012015619 0.0014036847 0.0025764874

exp_avg_sq f4 [6, 1, 5, 5]
00000000: 6ed1 1139 c5e4 1039 5d93 0939 7ec2 3239
00000010: ebf0 a439 c130 c238 254c cc38 b7ae d638
00000020: 9056 4939 b984 de39 0da4 c438 21b7 d338
00000030: 872d 0839 5a1e 9f39 8216 ef39 0b9e 1f39
00000040: f650 3539 c112 6839 007d c039 de03 d639
00000050: 7c64 5e39 6314 7439 2f3a 9c39 923e d039
00000060: 7c12 be39 f1a4 8c39 c667 8a39 48f5 3639
00000070: 55b8 3139 7294 7d39 fb91 8f39 88e1 7f39
00000080: 8423 3439 ffa9 5f39 ca7a 8a39 8366 7539
00000090: 1d6c 6639 922f 4239 ef68 7339 d2ee 6539
000000a0: b033 4039 ef89 4639 a741 5539 eace 6939
000000b0: 738a 3139 940b 2f39 c8f1 6139 0d65 8339
000000c0: 606d 7539 c243 2939 89e3 7238 d921 8738
000000d0: 6b81 c438 9032 ee38 b37d c638 62d2 c138
000000e0: 43b2 d338 6e9d c138 364a b938 b107 a438
000000f0: c7a5 1c39 81a8 ff38 507d b238 0550 ab38
00000100: 05ba 9b38 7f75 0239 f75c ae38 e3e5 9c38
00000110: 72c0 e538 123b da38 bf24 8738 2b49 8138
00000120: 13bb e338 0750 3039 440a 0a39 9e63 f038
00000130: 3299 2239 2106 0e39 fe37 da38 09e9 e538
00000140: 1251 0c39 7f3d 2139 114a f838 4d14 cc38
00000150: f071 1039 8137 1239 6720 0d39 0e02 0439
00000160: 2ae0 3639 90da a939 161e 0039 066a 0039
00000170: d86c 4939 11b7 c039 de94 043a ade9 f138
00000180: f27a 1039 2e0f 6c39 17c2 c239 2916 e239
00000190: de57 8139 95ef 4039 0d98 ff38 c386 dd38
000001a0: 9d67 e338 b4d7 7e39 f270 2139 6525 fa38
000001b0: e5e5 0439 6918 0639 0330 5e39 a656 2739
000001c0: 4979 3739 4a9c 3339 deb5 2039 e4bd 2b39
000001d0: ba77 1f39 8e76 3539 0708 2639 c01d 1839
000001e0: 3d76 d938 978e e838 04e0 0739 3e64 0a39
000001f0: 4500 1739 448b 6a39 e57e 8f39 258f a239
00000200: 7ed6 c939 2191 fe39 2bdb 8539 e2bc 9139
00000210: daf8 a439 cace ce39 ff8f fb39 b41e 9639
00000220: 8e80 8e39 91ff 7539 d129 6a39 1353 9839
00000230: 7296 9939 0f3a 6539 a5ae 0439 8822 d238
00000240: 1197 3e39 73ca 8539 eb2a 3039 492d b538
00000250: 645f a438 2aa6 2739
0.00013906296 0.00013818133 0.00013120235 0.00017047857 0.00031460015 9.259722e-05 9.741661e-05 0.00010236858
0.00019201101 0.00042442026 9.376565e-05 0.000100953745 0.00012986931 0.00030349457 0.00045602402 0.00015222297
0.00017291665 0.0002213223 0.00036714226 0.00040820142 0.00021209003 0.00023277248 0.0002979799 0.0003971947
0.00036253396 0.00026825772 0.00026398728 0.00017448247 0.00016948704 0.0002418326 0.0002738385 0.00024402712
0.00017179368 0.00021330266 0.00026412896 0.0002340321 0.00021974785 0.00018519003 0.00023213377 0.0002192811
0.00018329802 0.00018934136 0.0002033772 0.00022297693 0.00016931612 0.00016693614 0.00021547743 0.00025061556
0.00023405766 0.00016142338 5.7909205e-05 6.443606e-05 9.370114e-05 0.000113581424 9.464789e-05 9.242144e-05
0.00010094468 9.232281e-05 8.83531e-05 7.821562e-05 0.00014939076 0.00012190734 8.511043e-05 8.16882e-05
7.425625e-05 0.00012441537 8.3142826e-05 7.4814794e-05 0.00010955417 0.00010406053 6.444146e-05 6.164828e-05
0.00010859049 0.0001681448 0.0001316453 0.00011462647 0.00015506594 0.00013544458 0.000104054794 0.00010962977
0.00013381641 0.00015377066 0.000118393575 9.731259e-05 0.00013775355 0.00013944322 0.00013458879 0.00012589266
0.0001744038 0.00032397034 0.00012218239 0.00012246528 0.00019209401 0.0003675749 0.00050575833 0.00011535301
0.00013778711 0.00022512369 0.00037147172 0.0004312259 0.00024670264 0.00018399798 0.00012187669 0.000105632025
0.00010843503 0.00024303683 0.00015396232 0.00011927894 0.00012674143 0.0001278833 0.00021189456 0.0001595864
0.00017497422 0.00017128992 0.0001532654 0.0001637857 0.00015208023 0.0001730567 0.00015833984 0.00014506932
0.0001036939 0.000110891815 0.00012958056 0.00013198049 0.00014400583 0.0002236786 0.0002736963 0.000310057
0.00038497517 0.00048554785 0.0002553103 0.00027797284 0.00031465926 0.00039445452 0.00047981736 0.00028633105
0.0002718013 0.00023460227 0.00022331557 0.00029053594 0.00029294525 0.0002186077 0.00012653561 0.00010020012
0.00018176089 0.00025518573 0.00016800656 8.6391876e-05 7.837897e-05 0.00015988262

exp_avg f4 [6]
00000000: a363 44ba 4655 57bb e20b 843a 652a d93b
00000010: 7e91 a9bb 9628 943a
-0.00074916537 -0.0032857223 0.0010074342 0.0066273683 -0.0051748147 0.00113036

exp_avg_sq f4 [6]
00000000: 596a 343a e073 103a aab1 2c39 b9b1 463a
00000010: 0d60 9a39 5108 e03a
0.0006882302 0.0005510431 0.00016469383 0.00075795833 0.00029444732 0.0017092322

exp_avg f4 [16, 6, 5, 5]
00000000: dc19 d3ba 2ef7 f4ba f84b 2dba f02f 3538
00000010: 7b67 203a 7bb3 c2ba 9205 c4ba a995 6bb8
00000020: 350f 8ab8 58af d538 799c 8cba b801 bfba
00000030: 884d 55ba 4ce4 63ba 744a 1fb9 cc55 15b9
00000040: e24e 94ba b383 2dba 6efe 26b9 2bda da38
00000050: 9772 21b9 d757 9bba fa40 3ab9 c70b 2db8
00000060: 241f f038 62c1 bdb8 f012 5dba abbc 5bba
00000070: ecf5 61b9 bf0f 21b9 fcd8 0dba 9d8f 93ba
00000080: ec4a 52ba cf83 a8b9 f1ba 1dba f0d5 81b7
00000090: 1c79 04b9 57bd 4bba e93f e4b9 216a f5b9
000000a0: 1faa 4839 f2db 9ab8 9cd9 95ba d746 2cba
000000b0: 2ff7 efb9 be25 7d37 d5c5 80b9 693c a2b9
000000c0: a75a eeb9 4b8c b2b8 f239 82ba c2f4 9fba
000000d0: ba8f 3aba 8bc0 26b9 4035 2a39 142b 68ba
000000e0: 135f a7ba 2a39 a9b9 24b7 afb8 0aa6 f139
000000f0: 4c34 12ba 5aab a2ba 33e1 6db9 e222 c7b7
00000100: 49d5 d638 147b f7b8 d4a9 66ba 835a aab9
00000110: f838 f4b9 4291 d4b9 0fb8 0cb8 9517 0dba
00000120: d8c3 ecb9 7c00 55b9 a197 aeb8 4b16 42ba
00000130: 07a5 b3ba b84f 9eba 17d3 35ba efcd 1fba
00000140: 3c92 69b9 25de 54ba 9212 08ba 80ee 51b8
00000150: 8a2a 29ba 50dc f238 3a84 44ba 8f50 5dba
00000160: b0f0 1aba b394 78ba 8aaa 9e38 91fb 1bba
00000170: abdb 4bba 7607 9fb9 b261 05ba 6e59 dfb9
00000180: 7d05 8838 bdac b3b9 fb87 4db9 3c0a b7b8
00000190: 7204 1cba d8d0 56ba 5ae3 86ba a9f1 59ba
000001a0: a6b0 18ba d453 32ba e9db 5aba fccd adba
000001b0: 8978 bdb9 5cd2 a5b9 887b 9138 222a 13ba
000001c0: 5764 b9ba 2e0d 5eba 4602 d2b9 e546 ba38
000001d0: 96d8 ac38 bf04 89ba ff04 50ba 03d0 30b7
000001e0: d50b dbb9 ecec e338 4a46 23b9 3a6f 37ba
000001f0: f1b3 11b8 f24c 6eb9 d360 b1b9 778e d1b9
00000200: 7177 c1b7 f556 5cb8 a23f e2ba 6de4 99ba
00000210: 9851 98ba 5fc1 4cba 37fe 21b9 7a80 c0ba
00000220: cc1f 46ba 0c89 9138 360d 7539 3c4e 94b7
00000230: fbfd eeba 377f 36ba 7277 a5b9 071f 83ba
00000240: f697 6fb9 83b5 5fb9 1e16 aeb9 0dc4 9bba
00000250: f0a3 dbba 0440 75ba eb03 b038 f57d c03a
00000260: fa51 013b b588 933b fa63 a33b 1a7c b3b9
00000270: 2dab a03a 304d 283b a96c 813b 31e6 983b
00000280: df70 ea38 8d7a b03a aa70 dd3a d855 e73a
00000290: 32c1 7d3b d7ad 813a 40e5 ee3a aed9 e53a
000002a0: 53bd 343b 5e8c ba3b 27a4 0a3a cead 8e3a
000002b0: c5ba f93a e82f 903b d8e5 be3b be0b 8bb9
000002c0: 8608 6039 13db 313a 0e9c 1b3b 742f 763b
000002d0: 074f 8eba e572 2fba 7637 4739 edd8 103b
000002e0: 09ae 363b 2648 ffb9 586a 07ba c84d f839
000002f0: 5dc4 223a 5c92 d13a eb45 023a d5dc 07b9
00000300: 35d9 003a 20fa a53a 6cc2 ff3a 09ae 773a
00000310: 9e57 9839 bf02 af3a 4476 493b 0012 853b
00000320: cb89 eeb9 6f32 343a cf6f ae3a 1f50 fc3a
00000330: b02c 223b f461 8ab9 66f1 9a37 465c 7d3a
00000340: f602 ce3a 48f2 7e3b 6cd3 03ba 28ab a139
00000350: b94d 493a 1f01 b63a 3b4a 3f3b 7da7 bcb9
00000360: 5f56 073a 7ee2 7c39 f1dd 083a 25f1 b23a
00000370: 9299 c939 a365 bd3a 9722 cc3a 3521 f53a
00000380: 22cf 163b 803a 25b9 ef91 8db9 5dd5 943a
00000390: d501 4e3b 0092 943b 3e54 88ba b7c0 72ba
000003a0: 3a22 833a 512d 003b d41d a23b 9c83 9d38
000003b0: 1326 aeb8 c9fc c339 551a 7c39 6183 1a3b
000003c0: 4c55 413a b63c 863a 2750 f83a c1bf 263b
000003d0: 2c24 e83a 3fa5 fb3a 20a6 103b 45b3 863b
000003e0: 8998 c53b 24c6 aa3b e9e1 f639 ffb3 7439
000003f0: 83bc 0e3a 7c8b e83a b155 213b 7023 08ba
-0.0016105729 -0.0018689388 -0.00066107465 4.3198408e-05 0.00061189354 -0.0014854515 -0.0014955273 -5.6167748e-05
-6.583185e-05 0.00010189292 -0.0010727785 -0.0014572656 -0.0008136858 -0.00086933817 -0.00015191158 -0.00014241709
-0.0011315013 -0.0006619051 -0.00015925776 0.00010435687 -0.00015396845 -0.001185174 -0.00017762548 -4.1257383e-05
0.00011449892 -9.048243e-05 -0.0008433303 -0.0008382301 -0.00021549285 -0.00015360022 -0.00054110563 -0.001125801
-0.00080220285 -0.00032141662 -0.0006016931 -1.547762e-05 -0.00012633618 -0.0007772049 -0.00043535166 -0.00046809114
0.00019136861 -7.38426e-05 -0.001143265 -0.0006571835 -0.00045769798 1.5088763e-05 -0.0002456146 -0.00030944057
-0.0004546244 -8.513833e-05 -0.0009935482 -0.0012203681 -0.0007116754 -0.00015902721 0.000162323 -0.0008856517
-0.0012769423 -0.00032276782 -8.378763e-05 0.0004609081 -0.0005577251 -0.0012410686 -0.00022685975 -2.3738892e-05
0.00010244043 -0.00011800803 -0.000879911 -0.00032492363 -0.00046581752 -0.00040544017 -3.355002e-05 -0.0005382237
-0.00045159343 -0.00020313443 -8.32521e-05 -0.00074038346 -0.0013705798 -0.0012078201 -0.0006936057 -0.0006096055
-0.00022275088 -0.00081202603 -0.00051907555 -5.0051603e-05 -0.0006453177 0.000115804956 -0.000749651 -0.0008442485
-0.0005910499 -0.0009482607 7.5657925e-05 -0.0005950267 -0.00077765685 -0.00030332402 -0.0005088105 -0.00042600505
6.4860076e-05 -0.0003427024 -0.0001960098 -8.728026e-05 -0.000595159 -0.00081945723 -0.0010291145 -0.0008313903
-0.00058246625 -0.00068026525 -0.0008348809 -0.0013260241 -0.00036138695 -0.00031627982 6.937148e-05 -0.0005613883
-0.0014144283 -0.0008470592 -0.00040056015 8.882376e-05 8.2419414e-05 -0.0010453685 -0.0007935315 -1.0538849e-05
-0.0004177975 0.000108683336 -0.00015571076 -0.000699747 -3.4738277e-05 -0.00022726113 -0.0003383221 -0.0003996973
-2.3063012e-05 -5.2533072e-05 -0.0017261396 -0.001174105 -0.0011620997 -0.0007810797 -0.00015448859 -0.0014686726
-0.00075578387 6.939666e-05 0.00023369942 -1.7679406e-05 -0.0018233651 -0.00069617055 -0.00031560246 -0.0010003754
-0.00022849426 -0.00021334556 -0.00033204345 -0.0011883989 -0.0016757231 -0.00093555474 8.393064e-05 0.0014685976
0.00197327 0.0045023807 0.0049862834 -0.00034234003 0.0012258046 0.0025680773 0.003949721 0.004666113
0.000111790134 0.0013464257 0.0016894538 0.0017649485 0.003871989 0.0009893727 0.0018226281 0.0017536187
0.0027578666 0.0056930026 0.0005288743 0.0010885538 0.0019052854 0.004400242 0.0058257394 -0.00026520895
0.0002136548 0.0006784659 0.002374414 0.0037564905 -0.0010857292 -0.0006692841 0.0001899878 0.0022101954
0.002787473 -0.00048691145 -0.0005165688 0.00047360198 0.000620907 0.0015989053 0.0004969525 -0.0001295687
0.0004915179 0.0012663044 0.0019512898 0.00094482355 0.0002905698 0.0013352259 0.0030740658 0.0040609837
-0.0004549756 0.000687397 0.0013308468 0.0019249952 0.0024745874 -0.00026394392 1.847064e-05 0.0009664934
0.0015717435 0.0038901735 -0.0005028758 0.00030835834 0.0007679123 0.0013885832 0.0029188532 -0.00035982943
0.00051627116 0.00024116968 0.000522106 0.0013652189 0.00038452126 0.0014449846 0.0015574273 0.0018701913
0.0023011644 -0.00015757419 -0.00027002345 0.0011355091 0.0031434197 0.004534006 -0.0010401083 -0.0009260284
0.0010004707 0.001955826 0.0049474034 7.5108575e-05 -8.3040584e-05 0.00037381638 0.00024042402 0.0023576843
0.0007375076 0.0010241482 0.0018944786 0.0025443884 0.0017710975 0.0019199027 0.0022071674 0.004110726
0.0060301465 0.0052116085 0.00047089093 0.00023336707 0.00054449606 0.0017741765 0.0024617726 -0.0005193269
